…
64,))D = tf.keras.layers.Dense(128, kernel_initializer = _initializer, activation= _activation)(input)D = tf.keras.layers.Dense(512, kernel_initializer = _initializer, activation= _activation)(D)output = tf.keras.layers.Dense(1)(D)model = tf.keras.models.Model(inputs=input, outputs=output)아래의 메소드를 이용하여 model의 구조를 한 눈에 확인할 수 있다.model.summary()tf.keras.utils.plot_model(model, show_shapes=True)Model: \"sequential_2\"_________________________________________________________________ Layer (type) Output Shape Param # ================================================================= dense_31 (Dense) (None, 128) 8320 dense_32 (Dense) (None, 512) 66048 dense_33 (Dense) (None, 1) 513 =================================================================Total params: 74,881Trainable params: 74,881Non-trainable params: 0_________________________________________________________________Model: \"model_3\"_________________________________________________________________ Layer (type) Output Shape Param # ================================================================= input_9 (InputLayer) [(None, 64)] 0 dense_25 (Dense) (None, 128) 8320 dense_26 (Dense) (None, 512) 66048 dense_27 (Dense) (None, 1) 513 =================================================================Total params: 74,881Trainable params: 74,881Non-trainable params: 0_________________________________________________________________보다시피, 두 model의 정의 방법은 전혀 다르지만 실제로 model의 형태는 동일하다. Initializer, activation은 일단 무시하고(실제로 없어도 정의가 되긴 한다) 구조를 정의하는 방법의 차이에 대해 설명하면, Sequential은 그 내부에 정의할 layer가 한 줄로 이어지도록 사전에 의도하는 것이다. 한편 input부터 차례대로 정의하
…
